assets/model_no_quant.tflite (tflite, 584780 bytes, 17 tensors)

sequential_1/dense_3/BiasAdd/ReadVariableOp f4 [8]
-0.024795784 0.40310293 -0.1763767 -0.44398493 0.7520416 -0.17282575 -0.7220691 0.05641555
00000000: 8720 cbbc 8263 ce3e 189c 34be fe51 e3be
00000010: cc85 403f 3cf9 30be 85d9 38bf fe13 673d

sequential_1/dense_2/BiasAdd/ReadVariableOp f4 [16]
-0.25950775 -0.11479546 -0.19189067 -0.19243984 0.5066837 -0.5370431 -0.23877059 -0.24215007
-0.21820684 -0.23718415 0.046828557 0.09084155 0.054697774 0.60311484 0.5126712 0.5013881
00000000: 33de 84be e219 ebbd fd7e 44be f30e 45be
00000010: 06b6 013f a87b 09bf 4780 74be 30f6 77be
00000020: 9d71 5fbe 67e0 72be 4dcf 3f3d 220b ba3d
00000030: c60a 603d bc65 1a3f 6b3e 033f f85a 003f

sequential_1/dense_1/BiasAdd/ReadVariableOp f4 [32]
-0.011852719 0.05097924 -0.0395499 -0.065413 -0.025860347 -0.034916505 -0.043802198 0.10245824
0.018688021 -0.019660836 -0.06970645 -0.028747046 -0.17124718 -0.037084058 -0.033086475 0.636754
-0.08434609 -0.017158259 -0.010345585 -0.037439954 0.009198251 -0.13399036 -0.022688072 -0.034295667
-0.025253454 -0.36917907 -0.037799284 0.5916647 0.3143158 -0.04530373 -0.0981679 -0.028340664
00000000: e831 42bc 9ccf 503d 13ff 21bd 40f7 85bd
00000010: 14d9 d3bc 9c04 0fbd ef69 33bd a0d5 d13d
00000020: 9f17 993c c30f a1bc 41c2 8ebd ed7e ebbc
00000030: 6c5b 2fbe 74e5 17bd af85 07bd 4f02 233f
00000040: a5bd acbd 7a8f 8cbc 8780 29bc a35a 19bd
00000050: 43b4 163c c534 09be 56dc b9bc 9d79 0cbd
00000060: 55e0 cebc 0a05 bdbe 6cd3 1abd 5677 173f
00000070: 00ee a03e 6790 39bd 410c c9bd ae2a e8bc

sequential_1/conv2d_9/BiasAdd/ReadVariableOp f4 [128]
-0.11598064 -0.0835154 -0.028242819 0.049521357 0.33883828 0.061757546 -0.03666546 -0.041617792
-0.08763055 -0.053033344 -0.055037618 -0.15134822 -0.101354524 -0.21584599 0.30450717 0.44420612
-0.2820123 -0.027344076 -0.0088312 0.56144124 -0.006376935 -0.14136246 0.27980217 0.38322595
0.0739891 -0.09297025 -0.18424015 -0.07510708 -0.24171773 -0.08494626 0.057306264 -0.051757894
0.33496135 -0.0041972217 -0.009310456 -0.015561358 -0.12704721 -0.07092866 -0.22113578 -0.05436735
-0.029121252 0.32424596 0.04097063 0.05982532 0.075072005 -0.06417554 0.058266696 -0.017316515
0.5740075 0.009575599 0.21809292 0.24693666 -0.13039638 0.6038614 0.09371929 0.17695607
-0.24213818 -0.088476 -0.06023333 -0.17590816 -0.037553456 0.28299442 -0.13748713 -0.09967933
-0.084469326 -0.029093316 -0.16532892 -0.014937839 -0.029922217 -0.04872778 -0.037974175 0.03791231
-0.08097793 0.010699236 0.23075905 -0.23067646 -0.0477664 -0.017006347 -0.007686058 -0.0801214
0.0057258 0.057566475 -0.13888703 -0.1363452 -0.16421326 -0.0421463 -0.12376924 0.17624229
0.43830553 -0.05337937 -0.22402272 -0.25043446 -0.07852847 -0.09420512 -0.13876364 -0.18652357
0.056854285 -0.12661055 -0.10209715 -0.18346602 -0.073404446 -0.2428025 -0.023750849 0.21925443
0.24091305 0.43799537 -0.0145901535 0.3350891 -0.03238638 -0.13102785 0.2911323 -0.063849136
0.030481277 0.18975551 -0.19662273 -0.022144055 -0.060884625 -0.05182559 -0.098842174 0.09563986
-0.019770265 0.17886 -0.08541284 -0.121649556 0.25494933 -0.12595554 0.005078457 0.39801884
00000000: 4287 edbd 1f0a abbd 7c5d e7bc e8d6 4a3d
00000010: 367c ad3e 7bf5 7c3d 852e 16bd 6b77 2abd
00000020: a577 b3bd 7e39 59bd 206f 61bd 07fb 1abe
00000030: f692 cfbd bb06 5dbe 5de8 9b3e fc6e e33e
00000040: eb63 90be af00 e0bc bdb0 10bc 9dba 0f3f
00000050: 9cf5 d0bb 52c1 10be 3b42 8f3e 3136 c43e
00000060: 9987 973d 3067 bebd 73a9 3cbe bed1 99bd
00000070: da84 77be 4ef8 adbd f9b9 6a3d 1600 54bd
00000080: 0e80 ab3e d988 89bb e28a 18bc 11f5 7ebc
00000090: aa18 02be 0c43 91bd 6b71 62be 4cb0 5ebd
000000a0: b18f eebc 9103 a63e d2d0 273d 650b 753d
000000b0: 5abf 993d 776e 83bd 0fa9 6e3d 5ddb 8dbc
000000c0: 28f2 123f f9e2 1c3c c053 5f3e f7dc 7c3e
000000d0: a186 05be a996 1a3f e6ef bf3d f933 353e
000000e0: 12f3 77be e832 b5bd 39b7 76bd 4521 34be
000000f0: a7d1 19bd a5e4 903e 6dc9 0cbe ad24 ccbd
00000100: 41fe acbd 1b55 eebc fc4b 29be d6bd 74bc
00000110: 701f f5bc c896 47bd cf8a 1bbd f049 1b3d
00000120: c2d7 a5bd d94b 2f3c 1a4c 6c3e 7336 6cbe
00000130: b3a6 43bd e550 8bbc 54db fbbb b016 a4bd
00000140: 7e9f bb3b d3ca 6b3d 6738 0ebe 139e 0bbe
00000150: 8527 28be 99a1 2cbd ba7a fdbd dc78 343e
00000160: 9569 e03e 54a4 5abd 3666 65be f238 80be
00000170: 89d3 a0bd 9dee c0bd 0e18 0ebe 0900 3fbe
00000180: 0ae0 683d 32a6 01be 5018 d1bd 84de 3bbe
00000190: 1255 96bd 38a1 78be 2491 c2bc 3c84 603e
000001a0: e9b1 763e ee40 e03e 8a0b 6fbc cc90 ab3e
000001b0: 95a7 04bd 2a2c 06be 4b0f 953e 56c3 82bd
000001c0: dfb3 f93c 454f 423e 7857 49be 7367 b5bc
000001d0: 2862 79bd 1247 54bd c46d cabd d5de c33d
000001e0: 40f5 a1bc 1327 373e edec aebd 6723 f9bd
000001f0: b888 823e 7dfa 00be 2f69 a63b 20c9 cb3e

sequential_1/conv2d_8/BiasAdd/ReadVariableOp f4 [64]
-0.27906093 -0.17370312 -0.10198042 0.009938519 -0.076341696 0.1144238 -0.15898877 -0.16784878
-0.18166599 -0.20853056 -0.27894232 -0.24793477 -0.039333433 0.30211383 -0.17274627 -0.09521945
-0.17850937 -0.12863602 -0.24202414 -0.15772317 0.0011692805 -0.07846484 -0.17423114 0.4125733
-0.11718059 -0.08824313 -0.09510216 -0.17044835 -0.038739827 -0.103317745 -0.09506998 0.21987286
0.0014831297 0.04144603 -0.02594675 -0.106343076 -0.15217096 -0.36517513 -0.108386755 0.34957623
-0.12168956 -0.07217517 0.43187496 -0.060197715 -0.1371412 -0.110320956 -0.08778225 -0.056285664
0.0052131503 -0.075349204 -0.022037357 0.036055475 0.020179695 -0.034075852 -0.16562387 -0.36744103
-0.056940444 -0.028814074 -0.21149008 -0.033051126 -0.38714376 -0.031915102 -0.13852592 -0.16308215
00000000: 13e1 8ebe 3bdf 31be 1cdb d0bd 2cd5 223c
00000010: 0959 9cbd 0657 ea3d f4cd 22be 8de0 2bbe
00000020: a606 3abe 0989 55be 87d1 8ebe 9de2 7dbe
00000030: 181c 21bd aaae 9a3e 66e4 30be 6a02 c3bd
00000040: 29cb 36be 29b9 03be 2dd5 77be 2f82 21be
00000050: 8b42 993a 2db2 a0bd a669 32be cf3c d33e
00000060: 61fc efbd d0b8 b4bd ecc4 c2bd 038a 2ebe
00000070: a7ad 1ebd 4198 d3bd 0db4 c2bd 5a26 613e
00000080: 9365 c23a 50c3 293d 478e d4bc 66ca d9bd
00000090: b4d2 1bbe 3cf8 babe e0f9 ddbd a8fb b23e
000000a0: 6038 f9bd 93d0 93bd b71e dd3e e191 76bd
000000b0: be6e 0cbe f4ef e1bd 2ec7 b3bd cc8b 66bd
000000c0: 13d3 aa3b af50 9abd b087 b4bc e8ae 133d
000000d0: e34f a53c 1f93 0bbd 4e99 29be 3b21 bcbe
000000e0: 623a 69bd 7e0b ecbc db90 58be 9e60 07bd
000000f0: b537 c6be 69b9 02bd bdd9 0dbe 02ff 26be

sequential_1/conv2d_7/BiasAdd/ReadVariableOp f4 [32]
0.036391545 -0.03639232 -0.051594198 -0.30816057 -0.13697326 -0.28166568 -0.116526395 -0.18629016
-0.19905199 -0.16883297 -0.08329165 -0.03633484 0.04994166 -0.16878052 -0.14837481 -0.20016284
-0.10160215 -0.07713111 -0.027864844 -0.10401129 -0.14452457 -0.22791766 -0.15678251 -0.13381167
-0.011970158 -0.3104176 -0.122341834 -0.36916643 -0.100942604 -0.2699066 -0.0021205982 -0.2131461
00000000: 4d0f 153d 1d10 15bd 7054 53bd 39c7 9dbe
00000010: b842 0cbe 7c36 90be 64a5 eebd d9c2 3ebe
00000020: 49d4 4bbe 8de2 2cbe d094 aabd d7d3 14bd
00000030: a08f 4c3d cdd4 2cbe 91ef 17be 7df7 4cbe
00000040: ca14 d0bd eaf6 9dbd d044 e4bc df03 d5bd
00000050: 40fe 13be 3f63 69be 988b 20be ed05 09be
00000060: 7b1e 44bc 0eef 9ebe 5b8e fabd 6203 bdbe
00000070: ffba cebd 3331 8abe bcf9 0abb f942 5abe

sequential_1/conv2d_6/BiasAdd/ReadVariableOp f4 [16]
-0.04460905 0.13553159 -0.040530067 -0.029959727 -0.04219558 -0.15022416 -0.25007197 0.019991795
-0.23283952 -0.08423699 -0.16287996 -0.003943481 -0.06497207 -0.1483387 0.0050804983 0.0046633007
00000000: fbb7 36bd cbc8 0a3e db02 26bd 1a6e f5bc
00000010: 46d5 2cbd 5dd4 19be 6f09 80be d5c5 a33c
00000020: 7c6d 6ebe 7184 acbd 01ca 26be 5138 81bb
00000030: 1410 85bd 1ae6 17be 4f7a a63b 9ace 983b

sequential_1/conv2d_5/BiasAdd/ReadVariableOp f4 [8]
-0.12526149 0.035430305 -0.24468873 -0.047322966 -0.04242861 -0.037798457 0.05914682 -0.11920432
00000000: 8c44 00be 5e1f 113d af8f 7abe bad5 41bd
00000010: 9fc9 2dbd 8ed2 1abd f043 723d 6521 f4bd

sequential_1/dense_1/MatMul f4 [32, 3456]
-0.041069895 -0.003959292 -0.018832522 -0.0015326572 0.006592187 -0.009816874 -0.020948345 0.03799533
-0.02036375 -0.034753554 -0.04628597 -0.04836335 -0.015971856 0.032193325 -0.009535584 0.024568224
-0.09145818 -0.10108765 0.015783262 0.049018506 -0.0050300374 0.019017652 -0.040320966 -0.0010634876
-0.068876974 -0.0089767575 0.030497938 -0.0039295712 -0.040175885 0.04105886 -0.020558413 -0.018374003
-0.0114894025 -0.021691468 0.021083001 -0.058877844 0.016780384 -0.06945518 -0.014857728 0.00198899
0.019622758 0.032082867 -0.056618802 -0.017918423 0.009844013 -0.005034607 -0.035737205 -0.020230997
0.037091352 -0.045043327 -0.0011036085 -0.06209302 0.03428766 -0.038833626 -0.06311808 0.017839577
0.009864847 -0.016850315 -0.0363535 -0.020801403 -0.044527236 -0.044266015 -0.011316592 -0.03815788
-0.034477316 -0.0439391 -0.028025638 0.026796972 0.020719353 0.02166652 0.0053647086 -0.013521691
0.026896846 -0.025933584 -0.009012244 -0.01618704 -0.002990089 -0.03409919 -0.005432223 -0.1632678
-0.04542296 -0.048727036 0.022842538 -0.00817417 -0.0046995557 0.01077908 0.011317955 -0.01988463
-0.011416961 -0.08779646 -0.09602231 0.026619302 -0.00056219846 0.008818536 -0.024516001 -0.042391706
-0.0045765564 0.018513203 0.01826255 0.0037407652 0.014844269 -0.032048922 -0.02609362 -0.015033121
0.00833191 -0.01738635 -0.030509545 -0.025612656 -0.03881576 0.006595484 -0.01268267 -0.01236693
0.023309492 -0.007083892 -0.026301144 0.014343925 0.016304445 -0.024278633 -0.036774103 -0.024938548
-0.0046296525 -0.025037166 0.0103808055 -0.0054820618 0.0053046374 -0.023883618 0.007695634 -0.101316065
0.013278383 0.026334437 0.00018651652 -0.000993147 -0.036528487 -0.0092114415 0.024948122 0.021175696
0.026059497 0.03162997 0.01966061 -0.020609008 -0.023297384 0.06386378 -0.0052877977 0.035792533
-0.061148398 -0.07161098 0.015004186 0.04281276 0.02256764 -0.016961986 -0.015825689 -0.032737017
-0.08960603 0.0302326 0.031972125 -0.05075202 0.0034144884 0.0051448145 -0.023388412 0.0045420043
0.07457393 0.028829765 -0.011613073 -0.046206594 -0.03424286 -0.037756607 0.0012639896 0.023120064
-0.03054868 -0.0072606704 -0.03211749 -0.029849652 -0.020278055 -0.026769027 -0.036676187 -0.0051439446
0.021984462 -0.055496957 -0.01129977 -0.047004715 -0.020313283 -0.026122632 0.019367367 -0.0444694
0.022426106 -0.03681795 0.019059988 -0.05652455 -0.019543946 -0.00093534833 0.0056672734 -0.011236148
-0.027539544 0.045685995 0.01577831 -0.057491064 -0.06705274 0.03257229 -0.005511004 -0.011959488
-0.042381663 0.03299234 0.033684157 -0.038635913 0.028591672 -0.028325444 0.013482311 -0.06532263
0.002632408 -0.026130302 -0.0070610656 0.00747362 -0.002491099 -0.037232652 -0.015577775 -0.020021867
-0.03676524 -0.023716487 -0.02447935 -0.045608044 0.019681975 -0.017065799 0.012503771 -0.06491426
0.0018857233 0.035790198 -0.0103292195 0.0033879764 0.036111422 0.007275774 -0.014789159 -0.014565797
-0.006658688 -0.04806358 -0.039764553 0.026037766 -0.018067244 0.04042859 -0.042171966 -0.026683383
0.013830436 0.0110681765 -0.00023215268 -0.0017514788 -0.0038288906 -0.035283115 0.010781657 0.006699492
0.0039532413 -0.033722762 -0.0006134792 -0.039917897 -0.030553788 -0.03597 -0.0029170774 -0.056337524
00000000: e838 28bd f3bc 81bb a946 9abc 71e3 c8ba
00000010: 4603 d83b f4d6 20bc dd9b abbc fea0 1b3d
00000020: e1d1 a6bc be59 0ebd 5b96 3dbd a618 46bd
00000030: 69d7 82bc 26dd 033d 233b 1cbc 4d43 c93c
00000040: 6d4e bbbd 0b07 cfbd e64b 813c a1c7 483d
00000050: 03d3 a4bb e8ca 9b3c 9927 25bd b964 8bba
00000060: 5f0f 8dbd 4013 13bc d0d6 f93c a2c3 80bb
00000070: 788f 24bd 562d 283d 1e6a a8bc 1485 96bc
00000080: 0c3e 3cbc 4eb2 b1bc 42b6 ac3c e529 71bd
00000090: 0477 893c 843e 8ebd d46d 73bc b759 023b
000000a0: e8bf a03c 5369 033d 1ee9 67bd a8c9 92bc
000000b0: c848 213c 58f9 a4bb 2d61 12bd 7abb a5bc
000000c0: 1aed 173d 5a7f 38bd f5a6 90ba 4055 7ebd
000000d0: 3871 0c3d 0210 1fbd 0d44 81bd 4e24 923c
000000e0: 2ba0 213c ac09 8abc 68e7 14bd b467 aabc
000000f0: 3162 36bd 4850 35bd 3a69 39bc 704b 1cbd
00000100: 1638 0dbd 7cf9 33bd 0696 e5bc 5385 db3c
00000110: a2bb a93c fc7d b13c 70ca af3b 158a 5dbc
00000120: c656 dc3c ab72 d4bc 17a8 13bc af9a 84bc
00000130: 5ef5 43bb 98ab 0bbd ca00 b2bb ad2f 27be
00000140: 6d0d 3abd 0096 47bd 4620 bb3c f4ec 05bc
00000150: bbfe 99bb bd9a 303c f26e 393c 17e5 a2bc
00000160: 350e 3bbc a1ce b3bd 58a7 c4bd b910 da3c
00000170: 8060 13ba 9f7b 103c c8d5 c8bc eda2 2dbd
00000180: f0f6 95bb 00a9 973c 589b 953c a027 753b
00000190: 6035 733c bb45 03bd 4ac2 d5bc 7b4d 76bc
000001a0: 9082 083c d26d 8ebc 27ef f9bc a2d1 d1bc
000001b0: 46fd 1ebd ee1e d83b f9ca 4fbc aa9e 4abc
000001c0: 8cf3 be3c fe1f e8bb 7f75 d7bc c802 6b3c
000001d0: e690 853c fce3 c6bc 71a0 16bd ed4b ccbc
000001e0: 57b4 97bb be1a cdbc 4114 2a3c dea2 b3bb
000001f0: 86d2 ad3b 94a7 c3bc a82b fc3b cc7e cfbd
00000200: 938d 593c 51bb d73c a693 4339 7c2c 82ba
00000210: e59e 15bd 96eb 16bc 0160 cc3c a778 ad3c
00000220: ba7a d53c 6d8e 013d 4a0f a13c 39d4 a8bc
00000230: 28da bebc 03cb 823d 4345 adbb 319b 123d
00000240: be76 7abd c7a8 92bd 1ed4 753c 6f5c 2f3d
00000250: c5df b83c ddf3 8abc e0a4 81bc 4017 06bd
00000260: 5e83 b7bd 5caa f73c 34f5 023d 5ae1 4fbd
00000270: 9cc5 5f3b d595 a83b 0e99 bfbc 18d5 943b
00000280: 37ba 983d 662c ec3c c244 3ebc 2043 3dbd
00000290: 3e42 0cbd aca6 1abd 74ac a53a 4a66 bd3c
000002a0: 3a41 fabc ebea edbb a18d 03bd 4287 f4bc
000002b0: 2a1e a6bc b84a dbbc c539 16bd 898e a8bb
000002c0: c218 b43c c750 63bd ac22 39bc 0488 40bd
000002d0: 0b68 a6bc 21ff d5bc 50a8 9e3c 8c25 36bd
000002e0: f4b6 b73c 6bce 16bd b123 9c3c 4986 67bd
000002f0: a01a a0bc 2a32 75ba 89b4 b93b d217 38bc
00000300: 9c9a e1bc 3d21 3b3d 8441 813c c07b 6bbd
00000310: f252 89bd 866a 053d a795 b4bb baf1 43bc
00000320: 6598 2dbd fa22 073d 66f8 093d b140 1ebd
00000330: 1539 ea3c c30a e8bc e9e4 5c3c dfc7 85bd
00000340: 7a84 2c3b 370f d6bc 8360 e7bb 45e5 f43b
00000350: b541 23bb 4481 18bd ed39 7fbc e604 a4bc
00000360: 2697 16bd 1449 c2bc eb88 c8bc 80cf 3abd
00000370: 183c a13c 93cd 8bbc 9edc 4c3c c4f1 84bd
00000380: 602a f73a be98 123d e33b 29bc d008 5e3b
00000390: 92e9 133d 9e69 ee3b 3b4e 72bc 61a5 6ebc
000003a0: 2031 dabb 51de 44bd 28e0 22bd 274d d53c
000003b0: c201 94bc 7398 253d 83bc 2cbd 1c97 dabc
000003c0: 0e99 623c 4c57 353c 036e 73b9 e091 e5ba
000003d0: 20ee 7abb 0785 10bd 8ca5 303c 6a87 db3b
000003e0: 318a 813b e120 0abd e4d1 20ba f380 23bd
000003f0: f04b fabc 4755 13bd 702c 3fbb 2dc2 66bd

sequential_1/dense_2/MatMul f4 [16, 32]
0.1669316 -0.1940356 0.12901066 0.06708484 -0.25031352 0.15752858 0.15186523 -0.16922483
-0.15374589 0.23889038 -0.21572512 -0.14102063 0.2895553 0.2601142 -0.12322402 -0.105301335
-0.37220463 0.23894319 0.083464675 -0.28585133 -0.34776625 -0.09228235 -0.15646182 -0.24692994
0.32101268 0.22213447 0.27792332 0.10483791 0.23598701 0.26239845 -0.20336416 -0.26519656
0.21284673 -0.2403723 -0.1887007 -0.16253072 0.2928586 -0.25866723 0.31429926 -0.16644286
-0.13665271 0.3060023 0.2582997 -0.34160173 -0.16186985 0.25872073 -0.111188956 -0.18678896
0.11117303 -0.12181206 0.11816737 0.15451016 0.3114641 -0.16249953 -0.24115624 0.15359357
0.32103038 -0.07776874 0.24790558 -0.2047082 0.0033007606 0.30190778 -0.1420888 0.1159921
0.019680887 -0.3458018 -0.15453108 0.09443 -0.037439957 0.0037312508 -0.22849636 0.12831607
0.33167702 -0.03331986 -0.0074306726 -0.17931823 -0.14673348 0.20727769 0.021423709 -0.2666487
-0.13561648 0.17644551 -0.08746776 0.058474123 -0.010527939 0.043005504 0.25302833 0.087845
-0.23470332 -0.35295728 0.33895758 -0.46038917 -0.02103319 0.3492938 -0.0014793575 -0.21528424
-0.040710706 -0.2575327 -0.25023636 -0.0786463 -0.17528343 -0.10607794 0.13517039 0.042705894
-0.23991883 0.2236051 -0.15038936 -0.13223802 0.26777413 0.13267767 0.21260257 -0.27983332
0.36780882 0.22780144 0.02581942 -0.27392384 0.018832415 -0.02168486 0.2660706 -0.1970313
0.15800808 -0.0009764972 -0.045240536 -0.009202979 -0.10722676 0.3518133 0.21948995 0.16849716
-0.14511274 0.13505267 0.36234763 -0.31893533 -0.1458023 0.3285157 -0.07873172 -0.14272897
0.046510633 0.048045024 -0.07991485 -0.05212851 0.17613532 0.37254137 -0.024897715 0.11911432
0.31969175 -0.066437244 0.27509576 -0.08847417 -0.03659823 0.103212 -0.1718567 -0.2442621
-0.1178151 -0.092273414 -0.13545766 0.059601147 0.024509488 -0.12687717 -0.09538815 -0.028116725
-0.2589848 0.32231402 0.043658976 -0.1470566 0.19114631 0.0417653 -0.31909332 -0.336119
0.117469706 0.15966928 0.19510278 0.31580767 -0.17624791 0.22303143 0.20755361 0.020890594
0.37083182 -0.1197422 0.2624814 0.0700661 0.28395113 -0.20517008 0.3408913 -0.046455175
0.013613697 0.210289 -0.041386817 0.031758692 0.20822424 -0.31151158 0.037918042 -0.050619178
0.28611463 0.22930633 0.21221814 -0.303877 -0.123956226 0.21388067 0.2351643 -0.24199435
-0.09175295 -0.092955224 -0.33924347 -0.07232142 0.30931208 0.13462935 0.24228549 0.18795785
0.17948963 0.012327886 -0.31326196 -0.21929125 -0.2845813 0.33981124 -0.25309998 0.032783937
-0.09159202 0.21175544 0.2706366 -0.0082143275 -0.2115281 -0.0037024524 -0.38423026 0.16971335
0.015801013 -0.35022008 0.007918951 -0.1448421 0.23468225 -0.10267317 -0.2800336 -0.27653652
-0.27465978 -0.14566633 -0.03432286 0.029670358 -0.28702158 0.25856802 -0.26883018 -0.20547476
0.2463139 -0.38176212 0.29505482 -0.320349 -0.019167304 -0.14456339 0.27797216 0.2443091
0.04108455 0.10054282 -0.1227902 -0.09003572 -0.061788235 0.22070833 0.10161731 0.090637445
00000000: 1ef0 2a3e 45b1 46be 5f1b 043e c763 893d
00000010: 1829 80be 2c4f 213e 8f82 1b3e 4649 2dbe
00000020: 906f 1dbe ae9f 743e 0ce7 5cbe b667 10be
00000030: 9840 943e b02d 853e e05c fcbd 3aa8 d7bd
00000040: 9b91 bebe 86ad 743e 87ef aa3d 1b5b 92be
00000050: 6b0e b2be 87fe bcbd 8737 20be 34db 7cbe
00000060: c65b a43e 3877 633e f74b 8e3e 42b5 d63d
00000070: 94a6 713e 1759 863e b23e 50be d8c7 87be
00000080: 7ef4 593e 2824 76be c23a 41be 746e 26be
00000090: 90f1 953e 0870 84be d5eb a03e ff6f 2abe
000000a0: b0ee 0bbe 55ac 9c3e dc3f 843e 6ce6 aebe
000000b0: 36c1 25be 0b77 843e 09b7 e3bd 9b45 3fbe
000000c0: b0ae e33d 9a78 f9bd bc01 f23d e937 1e3e
000000d0: 3978 9f3e 4766 26be a9f1 76be a247 1d3e
000000e0: 185e a43e 3845 9fbd f6da 7d3e 079f 51be
000000f0: 9351 583b a893 9a3e ba7f 11be 448d ed3d
00000100: d039 a13c ef0c b1be 653d 1ebe 8464 c13d
00000110: a45a 19bd 0088 743b f3fa 69be 4a65 033e
00000120: 92d1 a93e 687a 08bd 007d f3bb 339f 37be
00000130: 4d41 16be 9a40 543e c680 af3c 2e86 88be
00000140: 0cdf 0abe 22ae 343e 4c22 b3bd 9082 6f3d
00000150: 607d 2cbc 8a26 303d ee8c 813e 14e8 b33d
00000160: 1156 70be d1b6 b4be d98b ad3e 21b8 ebbe
00000170: cc4d acbc a3d6 b23e 00e7 c1ba 7973 5cbe
00000180: 45c0 26bd 53db 83be fb1e 80be 5011 a1bd
00000190: 807d 33be 643f d9bd 1b6a 0a3e 60ec 2e3d
000001a0: 48ad 75be bcf8 643e abff 19be 6769 07be
000001b0: b119 893e a8dc 073e 7db4 593e 5046 8fbe
000001c0: 7051 bc3e c844 693e 4083 d33c bf3f 8cbe
000001d0: 7046 9a3c 73a4 b1bc 683a 883e 93c2 49be
000001e0: dfcc 213e 9efb 7fba 244e 39bd 17c8 16bc
000001f0: b499 dbbd df20 b43e f9c1 603e 858a 2c3e
00000200: 6f98 14be 3f4b 0a3e a185 b93e 7e4b a3be
00000210: 334d 15be 3633 a83e 193e a1bd 8b27 12be
00000220: ef81 3e3d dcca 443d 66aa a3bd b484 55bd
00000230: d15c 343e bebd be3e 4bf6 cbbc 35f2 f33d
00000240: a3ae a33e 4010 88bd 5ad9 8c3e f231 b5bd
00000250: 07e8 15bd d060 d33d 34fb 2fbe d81f 7abe
00000260: 0b49 f1bd d8f9 bcbd 6ab5 0abe 5520 743d
00000270: 1fc8 c83c 17ec 01be dd5a c3bd 0c55 e6bc
00000280: a899 84be 5806 a53e c1d3 323d 0196 16be
00000290: dcbb 433e 1712 2b3d 3360 a3be ca17 acbe
000002a0: f593 f03d 5880 233e 06c9 473e 8bb1 a13e
000002b0: 557a 34be 5a62 643e ef88 543e c022 ab3c
000002c0: abdd bd3e 663b f5bd f663 863e d17e 8f3d
000002d0: 0b62 913e 1b18 52be 4e89 ae3e c847 3ebd
000002e0: fc0b 5f3c 0056 573e 3985 29bd 6715 023d
000002f0: bc38 553e 727e 9fbe f34f 1b3d 0e56 4fbd
00000300: 9e7d 923e 47cf 6a3e b64f 593e c495 9bbe
00000310: c3dc fdbd 8903 5b3e e9ce 703e 5ecd 77be
00000320: f8e8 bbbd 4f5f bebd 52b1 adbe 411d 94bd
00000330: 275e 9e3e 47dc 093e b019 783e 0678 403e
00000340: 21cc 373e e7fa 493c df63 a0be e38d 60be
00000350: a4b4 91be bdfb ad3e 5296 81be 7348 063d
00000360: 9994 bbbd 6bd6 583e e190 8a3e 6395 06bc
00000370: d29a 58be d8a4 72bb d4b9 c4be 56c9 2d3e
00000380: 2071 813c 0c50 b3be 7dbe 013c 7d51 14be
00000390: 8b50 703e 5046 d2bd 9060 8fbe 3296 8dbe
000003a0: 35a0 8cbe 8e29 15be 2196 0cbd 400f f33c
000003b0: 7ef4 92be 0763 843e 1ca4 89be fa67 52be
000003c0: b639 7c3e 5376 c3be 6d11 973e c904 a4be
000003d0: c004 9dbc 6d08 14be 5e52 8e3e 2a2c 7a3e
000003e0: 4648 283d 65e9 cd3d 6e79 fbbd a664 b8bd
000003f0: a915 7dbd 5d01 623e bc1c d03d 20a0 b93d

sequential_1/dense_3/MatMul f4 [8, 16]
0.02206271 -0.38296026 -0.44968712 0.3498748 0.29281792 -0.21736984 -0.28377056 -0.19240677
-0.49549773 -0.48055825 0.37037644 0.098097205 0.057855755 0.41852975 -0.42564404 -0.48094496
0.024136256 0.32008296 -0.34829855 0.4436052 -0.1786904 0.16744164 -0.43579775 0.21258825
-0.43750897 0.1269347 -0.197986 0.43277842 0.029821405 0.1947067 0.12428926 -0.21341577
-0.059933305 0.5332105 -0.054007143 -0.5074391 -0.07216821 -0.073989965 -0.47526297 0.47930783
0.19143659 -0.11135031 0.26856777 -0.05260459 0.014257563 -0.17917469 0.18747048 -0.27805418
-0.03860947 0.2286645 0.34277993 -0.21245347 -0.09206607 0.26763645 0.118434176 0.102922566
0.15645899 0.3932558 -0.060433384 0.0051887385 0.34227493 0.14832279 -0.31216154 -0.048533496
-0.19962947 -0.24179748 -0.34040564 -0.4399539 -0.0037368299 0.00024646742 -0.13977234 -0.11473746
0.061401468 0.41725746 0.12942526 -0.043687012 0.4207281 0.22938514 0.18242185 0.2617558
-0.030554453 0.28564012 0.09802699 0.052010946 -0.22040503 0.03338521 0.2768813 -0.24872586
-0.15495723 0.31369144 -0.072527416 0.30906773 -0.5005989 -0.4939008 -0.3942703 -0.5522774
-0.30224067 0.0080754785 0.15657115 0.28323856 -0.34121892 0.36818457 -0.37807205 -0.11700857
0.085846536 0.40171957 -0.10669418 0.40287212 0.40218267 -0.0707581 0.19940929 0.2336066
0.215886 0.071994886 0.51628435 -0.16796468 -0.4253126 0.035743427 -0.30677032 0.28807482
-0.31536263 -0.11389386 0.19288467 0.18744649 0.17568457 0.12137196 -0.4615993 -0.32056674
00000000: dbbc b43c 5e13 c4be 643d e6be ca22 b33e
00000010: 3bec 953e 3396 5ebe 604a 91be 4806 45be
00000020: e1b1 fdbe bb0b f6be fba1 bd3e 30e7 c83d
00000030: 28fa 6c3d 8849 d63e 04ee d9be 6b3e f6be
00000040: 66b9 c53c eae1 a33e 3054 b2be 3920 e33e
00000050: 9efa 36be d275 2b3e e220 dfbe bcb0 593e
00000060: 2d01 e0be 2cfb 013e d8bc 4abe 2295 dd3e
00000070: 054c f43c 3161 473e 5e8b fe3d aa89 5abe
00000080: a07c 75bd 7c80 083f 9836 5dbd 87e7 01bf
00000090: edcc 93bd 0d88 97bd ab55 f3be d667 f53e
000000a0: f407 443e a20b e4bd b781 893e e977 57bd
000000b0: 8e98 693c 9279 37be 43f8 3f3e 1e5d 8ebe
000000c0: f724 1ebd 0727 6a3e da80 af3e 678d 59be
000000d0: 238d bcbd a507 893e 9e8d f23d 11c9 d23d
000000e0: c936 203e d358 c93e ff88 77bd 4b06 aa3b
000000f0: a93e af3e eee1 173e a3d3 9fbe 0fcb 46bd
00000100: ab6b 4cbe c299 77be a649 aebe a341 e1be
00000110: 9ae5 74bb 4c38 8139 7b20 0fbe 79fb eabd
00000120: 1b80 7b3d c5a2 d53e 0e88 043e 27f1 32bd
00000130: ac69 d73e f0e3 6a3e cbcc 3a3e db04 863e
00000140: 554d fabc 6c3f 923e 60c2 c83d 6e09 553d
00000150: dbb1 61be eebe 083d 63c3 8d3e feb1 7ebe
00000160: 1cad 1ebe 2a9c a03e 4189 94bd 203e 9e3e
00000170: 4027 00bf 91e0 fcbe ccdd c9be 0d62 0dbf
00000180: 4abf 9abe 034f 043c 3054 203e a504 913e
00000190: 3fb4 aebe b082 bc3e a992 c1be 30a2 efbd
000001a0: 4fd0 af3d 30ae cd3e 7a82 dabd 4145 ce3e
000001b0: e3ea cd3e 9fe9 90bd f331 4c3e 9236 6f3e
000001c0: 3811 5d3e 0e72 933d 362b 043f effe 2bbe
000001d0: 93c2 d9be b367 123d 0011 9dbe 8b7e 933e
000001e0: 3677 a1be 2f41 e9bd 8f83 453e f9f1 3f3e
000001f0: a8e6 333e dd91 f83d be56 ecbe 5321 a4be

sequential_1/dense_4/MatMul f4 [1, 8]
-0.45945057 -0.49932402 0.20341513 0.3834522 -0.37053922 0.51537484 0.2087256 -0.013670608
00000000: 1b3d ebbe 66a7 ffbe 0e4c 503e d953 c43e
00000010: 51b7 bdbe 9bef 033f 2abc 553e b0fa 5fbc

sequential_1/conv2d_5/Conv2D f4 [8, 3, 3, 1]
-0.08465069 -0.29767382 -0.09543998 -0.14839076 0.23733072 -0.13575935 0.05023692 -0.055470154
0.2494324 -0.14572589 0.1476375 0.11120756 0.2758907 -0.05771677 -0.040425494 0.07254553
0.14930597 -0.21045512 -0.11377541 0.15636064 -0.23943642 -0.0071200463 -0.25629026 0.05603897
-0.12956674 -0.017032266 0.1887511 -0.09681578 0.15569405 0.14555793 0.103344835 -0.23315774
0.05965531 -0.10875781 0.16705486 -0.14001477 -0.18031605 0.08657574 -0.008903801 -0.045109864
-0.1980305 0.013746605 -0.2261993 0.18800792 -0.043333814 -0.08659425 0.24948372 -0.18756154
0.011084546 -0.16629052 0.081193075 -0.049594954 0.100550726 -0.07518838 -0.07470023 -0.17391944
-0.050331187 -0.051650982 0.2136796 0.12799355 0.1056358 0.3112964 -0.27835605 -0.05916366
-0.12336041 0.22091512 0.10755599 0.053855352 0.0043724678 0.112261 0.23232214 -0.081547126
00000000: 575d adbd b468 98be 0976 c3bd bff3 17be
00000010: d306 733e 8004 0bbe 3bc5 4d3d ac34 63bd
00000020: 356b 7f3e 2b39 15be 492e 173e cac0 e33d
00000030: 8c41 8d3e 6b68 6cbd 3495 25bd c092 943d
00000040: aae3 183e 8c81 57be 1503 e9bd 011d 203e
00000050: d22e 75be 474f e9bb 7a38 83be 1e89 653d
00000060: 25ad 04be 4087 8bbc f847 413e 5a47 c6bd
00000070: 436e 1f3e 230d 153e 75a6 d33d e7c0 6ebe
00000080: 2059 743d 6abc debd 6e10 2b3e 0860 0fbe
00000090: c5a4 38be 9f4e b13d 40e1 11bc 1fc5 38bd
000000a0: 82c8 4abe 7139 613c caa0 67be 2685 403e
000000b0: cc7e 31bd 5358 b1bd a978 7f3e 2210 40be
000000c0: f59b 353c 1048 2abe 8e48 a63d 1424 4bbd
000000d0: 8aed cd3d 5efc 99bd 6ffc 98bd f017 32be
000000e0: 1328 4ebd fb8f 53bd d3ce 5a3e be10 033e
000000f0: 9557 d83d 3e62 9f3e af84 8ebe 9855 72bd
00000100: 62a4 fcbd 9337 623e 5146 dc3d 6e97 5c3d
00000110: eb46 8f3b 18e9 e53d dbe5 6d3e 2e02 a7bd

sequential_1/conv2d_6/Conv2D f4 [16, 3, 2, 8]
-0.023954768 -0.06965 0.18888593 -0.13800573 -0.111787915 0.02238317 -0.19704707 -0.015203139
-0.17735511 0.018909711 0.19904138 0.15780732 -0.02574135 0.094966516 -0.07281855 0.32534844
0.2629621 -0.15700921 0.19646429 0.08397916 -0.013418127 0.108841375 0.24315642 0.13975197
0.06645331 0.022249455 0.015064896 -0.04578699 -0.058353323 -0.05276985 -0.03856384 -0.09784653
0.09044724 -0.17687288 0.05232439 -0.08197793 0.024185913 0.14901477 -0.09541388 -0.013074164
-0.18836248 -0.18363076 0.17749895 0.13108152 0.069047995 -0.17133677 -0.23949742 -0.070374064
-0.14563397 0.017240904 -0.0474197 -0.24996802 -0.037277587 -0.23551033 -0.19557817 0.07977061
-0.17964897 0.07578757 0.14218922 -0.0919491 0.11223736 -0.04565964 0.22608177 0.158585
0.11363412 -0.051049814 -0.25658485 -0.25369874 0.040537976 -0.29791585 -0.05299474 0.012657823
-0.122012705 0.083727255 0.09689457 -0.15826562 0.17684074 -0.1387534 -0.05199362 -0.18640158
-0.19667764 -0.0028718028 -0.13733791 -0.04116485 0.0731825 -0.23336829 0.06528881 0.17526476
0.22979765 -0.12725784 0.13924347 -0.116023585 -0.10023429 0.0017016723 -0.2681889 0.009398
-0.06607738 0.034138918 -0.21075648 -0.13093883 0.10348195 -0.09112 -0.08960464 -0.05296397
-0.10799229 -0.014786155 0.039753687 0.06323014 -0.22515675 0.097201176 -0.14103056 -0.18555328
-0.037948634 -0.21543983 -0.13197485 0.084629215 -0.151664 -0.1946289 0.06380997 0.029022144
-0.19820282 -0.24852763 -0.0017124003 -0.07206429 0.004888563 0.035362933 -0.1545337 -0.11161324
0.051125314 -0.06478979 0.18748936 -0.098459356 -0.23018458 -0.15545173 0.05004384 -0.15859652
-0.030319143 0.05110016 -0.2184708 -0.17072864 -0.14504084 0.08599277 0.057518065 -0.15277639
0.01534595 0.0076451637 0.17988709 0.05132022 0.047275614 0.16128246 -0.19461918 -0.13151976
-0.115473114 0.16514349 -0.16151932 -0.041871775 -0.045212597 0.23454306 -0.07006739 0.08117276
0.12168452 0.18242212 -0.075156815 0.21272369 -0.024476765 -0.130137 0.0054342076 0.16288362
0.23102877 -0.0013660152 -0.05186707 0.23316753 -0.040613696 0.1082831 0.035969198 -0.20377308
-0.102680385 -0.23802139 -0.1089602 -0.07014861 -0.15848969 -0.09655405 -0.17384969 0.13345021
-0.033397906 0.084190495 -0.046418224 -0.13162532 0.08974557 -0.07650157 -0.24517328 -0.13722359
-0.07624316 -0.04818493 -0.03959994 -0.058007885 -0.3109243 -0.17723711 0.16901122 0.08988464
0.11061708 0.12174154 -0.14501749 0.09451201 -0.002680794 -0.1916125 -0.15436506 0.07246286
-0.14318323 0.057797898 -0.19683635 -0.16485204 -0.12544803 0.122853234 -0.024432523 -0.09252442
0.0076127164 0.2490499 -0.029479101 0.001460732 0.0824159 -0.11566189 -0.09620388 -0.11373972
-0.054725207 -0.33374134 0.0027267626 -0.207 0.0794749 0.082931876 -0.16918561 -0.11538608
-0.13436677 -0.021268222 -0.2163583 0.060090505 -0.18918052 -0.084962875 -0.01773929 0.029477756
0.20659168 -0.27749047 0.055078927 0.00532807 0.07901667 -0.13088958 0.08403339 -0.19604662
0.1038589 -0.012419775 0.017155347 -0.21016435 -0.23940009 0.047992352 -0.2024773 0.055404827
00000000: ca3c c4bc a9a4 8ebd 506b 413e 6051 0dbe
00000010: 10f1 e4bd e95c b73c b5c6 49be 9616 79bc
00000020: 949c 35be 8ae8 9a3c 81d1 4b3e 3e98 213e
00000030: 86df d2bc ce7d c23d e421 95bd 1294 a63e
00000040: f8a2 863e 06c7 20be ef2d 493e 44fd ab3d
00000050: b4d7 5bbc 3ae8 de3d fffd 783e 241b 0f3e
00000060: ac18 883d 7d44 b63c c1d2 763c 248b 3bbd
00000070: e503 6fbd 3325 58bd 1ef5 1dbd c363 c8bd
00000080: 673c b93d 2a1e 35be 1952 563d 0ce4 a7bd
00000090: 8921 c63c 5497 183e 5a68 c3bd 0535 56bc
000000a0: 18e2 40be b409 3cbe 49c2 353e 3c3a 063e
000000b0: 0969 8d3d e872 2fbe d03e 75be 4720 90bd
000000c0: 1221 15be cc3c 8d3c 293b 42bd 9ef7 7fbe
000000d0: 62b0 18bd 9f29 71be a545 48be c65e a33d
000000e0: e6f5 37be 8336 9b3d 0d9a 113e cf4f bcbd
000000f0: b3dc e53d 9a05 3bbd fb81 673e 1b64 223e
00000100: 01b9 e83d 9c19 51bd 175f 83be cde4 81be
00000110: 260b 263d 6d88 98be 0311 59bd c262 4f3c
00000120: cce1 f9bd 3279 ab3d a970 c63d 6210 22be
00000130: bd15 353e 5f15 0ebe 43f7 54bd 0ee0 3ebe
00000140: dd65 49be db34 3cbb 4fa2 0cbe 799c 28bd
00000150: b5e0 953d 19f8 6ebe 24b6 853d 9b78 333e
00000160: 1350 6b3e e14f 02be d795 0e3e c69d edbd
00000170: a347 cdbd a60a df3a 0e50 89be 12fa 193c
00000180: 9453 87bd 40d5 0b3d 8cd0 57be d414 06be
00000190: 58ee d33d 1f9d babd a382 b7bd bff0 58bd
000001a0: 102b ddbd a141 72bc c3d4 223d ce7e 813d
000001b0: 7e8f 66be 6911 c73d 516a 10be ae01 3ebe
000001c0: 0770 1bbd 429c 5cbe 6a24 07be 1552 ad3d
000001d0: cf4d 1bbe cc4c 47be cdae 823d d9bf ed3c
000001e0: aef5 4abe 077e 7ebe 9f72 e0ba 7196 93bd
000001f0: 3d30 a03b b9d8 103d 153e 1ebe 7b95 e4bd
00000200: c768 513d 82b0 84bd 36fd 3f3e 0fa5 c9bd
00000210: 82b5 6bbe bd2e 1fbe c5fa 4c3d 2067 22be
00000220: da5f f8bc 674e 513d cfb6 5fbe 7dd3 2ebe
00000230: 9685 14be fa1c b03d 1098 6b3d 6a71 1cbe
00000240: 946d 7b3c 4884 fa3b 5234 383e 2735 523d
00000250: 13a4 413d 3b27 253e 404a 47be 1ead 06be
00000260: 2b7d ecbd 601b 293e 5265 25be bd81 2bbd
00000270: d830 39bd 0e2c 703e 7e7f 8fbd e73d a63d
00000280: bc35 f93d ddcc 3a3e d1eb 99bd 3dd4 593e
00000290: 7f83 c8bc a242 05be 7011 b23b f7ca 263e
000002a0: ce92 6c3e dd0b b3ba 9172 54bd 78c3 6e3e
000002b0: 8c5a 26bd 88c3 dd3d 7054 133d e4a9 50be
000002c0: 184a d2bd e1bb 73be 8626 dfbd 13aa 8fbd
000002d0: 1f4b 22be 21be c5bd a705 32be 2ca7 083e
000002e0: 3ecc 08bd 116c ac3d 0921 3ebd cac8 06be
000002f0: 87cc b73d dbac 9cbd b40e 7bbe 5784 0cbe
00000300: 6025 9cbd 905d 45bd 8c33 22bd ad99 6dbd
00000310: 7831 9fbe a57d 35be 4711 2d3e 7015 b83d
00000320: 358b e23d a153 f93d 777f 14be 838f c13d
00000330: 43b0 2fbb 1136 44be e011 1ebe 6867 943d
00000340: a09e 12be 7dbd 6c3d 788f 49be f9ce 28be
00000350: 7375 00be 7a9a fb3d b726 c8bc 717d bdbd
00000360: 1874 f93b f006 7f3e 287e f1bc 0876 bf3a
00000370: abc9 a83d 24e0 ecbd 8a06 c5bd 5ff0 e8bd
00000380: 8a27 60bd 25e0 aabe 7cb3 323b cff7 53be
00000390: bdc3 a23d 30d8 a93d fe3e 2dbe 8a4f ecbd
000003a0: 7197 09be b23a aebc 088d 5dbe 7621 763d
000003b0: 8ab8 41be 0401 aebd fd51 91bc 567b f13c
000003c0: c58c 533e 3b13 8ebe 719a 613d 1797 ae3b
000003d0: 7ed3 a13d eb07 06be b319 ac3d 72c0 48be
000003e0: fab3 d43d 507c 4bbc 5f89 8c3c 5335 57be
000003f0: 4c25 75be a193 443d 3656 4fbe 2cf0 623d

sequential_1/conv2d_7/Conv2D f4 [32, 3, 1, 16]
-0.22086209 0.0210851 0.01321694 -0.23676455 -0.00024514797 -0.10617931 -0.10400554 0.22475214
0.12244065 0.062123764 -0.14381646 0.29245687 0.16412021 0.10002866 0.012994897 0.105393134
-0.054037932 0.051383924 -0.062617175 0.16364524 -0.064572826 -0.16538347 -0.010255759 0.12827586
-0.23165363 -0.13260995 0.08235929 -0.14632876 -0.016474895 0.10667867 -0.047532395 -0.21167523
0.10933286 0.003343415 0.1509208 -0.0561609 0.021055503 -0.023349948 -0.06222423 -0.0095384
0.07381919 0.050829757 -0.08796934 0.16419847 -0.06680299 0.09440575 0.1489522 0.080347426
0.004007819 -0.13679412 -0.00045743067 0.1302642 0.0032423907 -0.20430548 0.10092348 0.08848514
-0.021667251 -0.023925258 0.061873328 -0.09231897 0.09266023 -0.14830153 0.061940912 0.06728802
0.0062982743 0.04742791 -0.03690589 0.07321436 0.13124606 0.07712522 -0.07500654 0.0616965
-0.24514227 -0.2241264 0.06583774 -0.08857133 0.10369393 -0.12573218 -0.122223325 -0.09309128
0.055571698 0.15265161 0.021000542 0.12299012 0.09225814 0.1391529 -0.15203477 -0.011383602
0.117291324 0.082983464 0.023057507 0.16296552 0.08209091 0.2220634 0.07317625 0.13018861
0.010778329 -0.2211562 -0.1422178 0.05214816 -0.08334703 -0.1374189 -0.18076566 0.003289657
0.01720541 0.13877882 -0.034929603 -0.077478915 0.061604906 -0.26136634 -0.025075693 -0.17585744
-0.17327629 -0.20850964 0.055878624 -0.014177445 -0.053451616 -0.13863607 -0.26403317 0.1404602
-0.07987239 -0.058121126 0.043465428 0.120305136 -0.06442546 -0.1079342 -0.19460456 -0.085148565
-0.20086265 -0.031488072 -0.10207983 -0.13343394 -0.18069813 0.060598813 0.13421294 -0.1545823
-0.19919673 -0.22669643 -0.13932304 -0.08343331 -0.11654957 0.12195584 -0.13705036 -0.18008068
0.041509416 0.045803186 0.16031574 -0.052431487 0.22527958 0.0064561707 -0.15320525 -0.15687762
-0.22659548 -0.026573684 -0.079933085 -0.08797929 0.18810584 -0.06451804 -0.23430473 0.03739924
0.13794084 -0.2504756 -0.00455048 0.06541108 -0.13392843 -0.02458501 0.05703975 0.15447672
0.08279334 0.023134058 0.1012527 -0.04832696 0.025529807 0.1627762 -0.13226537 0.10301483
-0.16693577 -0.1759229 -0.14018226 -0.07024891 -0.074642 -0.115310006 -0.026372056 -0.15782578
0.038917746 0.09691744 0.13256711 -0.07764069 -0.07840863 -0.1679231 0.030246481 -0.13161342
-0.3103657 -0.03023505 0.10385825 0.04983673 -0.19041264 0.17789274 0.031306475 0.005498433
-0.26605126 -0.23473142 -0.19344299 -0.042520538 0.098195486 -0.011460182 -0.10558045 0.0833535
0.039904796 -0.058260635 0.10576331 -0.013080047 0.15702619 -0.22021876 0.084889926 -0.0017674222
0.18029477 0.098165214 -0.10959857 -0.0658778 -0.12663542 -0.079262264 -0.14297748 -0.11904405
-0.30273414 -0.20840858 -0.050833162 -0.1073178 -0.10914968 0.12239484 -0.03304706 0.059829544
-0.1026798 0.00011204925 0.028715514 -0.15836036 -0.15663077 0.0785494 -0.051244523 -0.11712614
-0.11717255 0.120752424 0.1719338 0.007511853 0.23565574 -0.15524599 0.085795194 -0.11805152
-0.012104102 -0.0975703 -0.019238189 -0.18581407 0.11330156 0.11123828 -0.12149497 0.09914388
00000000: ac29 62be a9ba ac3c dd8b 583c 6872 72be
00000010: 3487 80b9 8a74 d9bd db00 d5bd 6d25 663e
00000020: 2ac2 fa3d 7d75 7e3d 9f44 13be e8bc 953e
00000030: 210f 283e d3db cc3d 8ce8 543c 5bd8 d73d
00000040: e156 5dbd f377 523d 6f3d 80bd 9e92 273e
00000050: c23e 84bd 495a 29be c507 28bc bf5a 033e
00000060: 9c36 6dbe e7ca 07be fdab a83d 35d7 15be
00000070: 5cf6 86bc 597a da3d 54b1 42bd 64c1 58be
00000080: e8e9 df3d 321d 5b3b fb8a 1a3e f908 66bd
00000090: 977c ac3c 6448 bfbc d6de 7ebd f346 1cbc
000000a0: 842e 973d dd32 503d 4529 b4bd a523 283e
000000b0: 02d0 88bd cd57 c13d ed86 183e 318d a43d
000000c0: 0654 833b c213 0cbe 4ed3 efb9 fa63 053e
000000d0: 4a7e 543b 7535 51be f8b0 ce3d b237 b53d
000000e0: 857f b1bc e7fe c3bc e36e 7d3d ba11 bdbd
000000f0: a6c4 bd3d 5bdc 17be c1b5 7d3d 4dce 893d
00000100: c161 ce3b c543 423d a12a 17bd 69f1 953d
00000110: 5e65 063e d4f3 9d3d 079d 99bd 78b5 7c3d
00000120: 9306 7bbe 6481 65be f0d5 863d e364 b5bd
00000130: 7c5d d43d f0bf 00be 3950 fabd a4a6 bebd
00000140: 269f 633d b450 1c3e 5409 ac3c 3ee2 fb3d
00000150: d6f1 bc3d 197e 0e3e 01af 1bbe 4a82 3abc
00000160: 6f36 f03d 3cf3 a93d 19e3 bc3c 6fe0 263e
00000170: 471f a83d 9764 633e 6edd 953d 2a50 053e
00000180: 9797 303c c576 62be 8ba1 11be 4f99 553d
00000190: d9b1 aabd 8ab7 0cbe a21a 39be 4997 573b
000001a0: 5cf2 8c3c 091c 0e3e 5812 0fbd 44ad 9ebd
000001b0: 6d55 7c3d cfd1 85be 8a6b cdbc f913 34be
000001c0: 576f 31be 8d83 55be fce0 643d 8448 68bc
000001d0: 15f0 5abd 9df6 0dbe 5b2f 87be ccd4 0f3e
000001e0: 2394 a3bd 6b10 6ebd ce08 323d 8a62 f63d
000001f0: 7ff1 83bd 9b0c ddbd 6b46 47be 5f62 aebd
00000200: f0ae 4dbe a3f9 00bd 3b0f d1bd e8a2 08be
00000210: ee08 39be 7636 783d 1e6f 093e d34a 1ebe
00000220: 3afa 4bbe 1c23 68be b3aa 0ebe 15df aabd
00000230: 8ab1 eebd fcc3 f93d ee56 0cbe 1267 38be
00000240: c705 2a3d 1f9c 3b3d cf29 243e 66c2 56bd
00000250: b1af 663e 498e d33b d6e1 1cbe 87a4 20be
00000260: a508 68be 0eb1 d9bc f5b3 a3bd 7c2e b4bd
00000270: d19e 403e 0922 84bd 94ed 6fbe f22f 193d
00000280: 5d40 0d3e 563e 80be 311c 95bb 3ff6 853d
00000290: 8924 09be 8166 c9bc 83a2 693d 252f 1e3e
000002a0: 8e8f a93d a383 bd3c 935d cf3d 7ef2 45bd
000002b0: e323 d13c ceae 263e 9370 07be 70f9 d23d
000002c0: 36f1 2abe 2225 34be f08b 0fbe a9de 8fbd
000002d0: e8dd 98bd a727 ecbd 360a d8bc 159d 21be
000002e0: 3768 1f3d a77c c63d acbf 073e 1502 9fbd
000002f0: b494 a0bd 08f4 2bbe 78c7 f73c abc5 06be
00000300: 41e8 9ebe 7faf f7bc a2b3 d43d 9921 4c3d
00000310: 88fb 42be 8429 363e 383b 003d 332c b43b
00000320: df37 88be 6f5d 70be eb15 46be 042a 2ebd
00000330: b71a c93d 7dc3 3bbc 903a d8bd 3db5 aa3d
00000340: 3673 233d b4a2 6ebd 6f9a d83d b24d 56bc
00000350: 79cb 203e 0781 61be c5da ad3d d9a8 e7ba
00000360: 319f 383e d80a c93d 3775 e0bd f1ea 86bd
00000370: b7ac 01be 4154 a2bd b068 12be 5ecd f3bd
00000380: f8ff 9abe 0f69 55be 6f36 50bd 6fc9 dbbd
00000390: de89 dfbd 25aa fa3d 5b5c 07bd d30f 753d
000003a0: c949 d2bd fcfb ea38 cc3c eb3c 3829 22be
000003b0: d163 20be 82de a03d c7e5 51bd d4df efbd
000003c0: 29f8 efbd 0c4d f73d 6a0f 303e fd25 f63b
000003d0: bd4f 713e cef8 1ebe 64b5 af3d ffc4 f1bd
000003e0: 4950 46bc f0d2 c7bd 6899 9dbc 0b46 3ebe
000003f0: a60a e83d e5d0 e33d 5bd2 f8bd f20b cb3d

sequential_1/conv2d_8/Conv2D f4 [64, 3, 1, 32]
0.0300713 -0.09533564 0.0366681 -0.12826632 -0.09612828 0.033799328 -0.21828018 -0.023224687
0.02526454 0.119148016 -0.099910945 -0.12365437 -0.17493604 -0.17710376 0.0863108 -0.08878309
-0.15806596 0.06786302 -0.20722191 0.04768774 -0.060996745 -0.16038927 -0.1772769 0.064727806
-0.15372892 -0.014392538 -0.12584987 -0.16457768 0.13520114 -0.0146252345 -0.14331351 0.051524796
-0.13006815 0.051906798 0.005574305 -0.12393364 0.0670057 -0.13143653 -0.121243306 0.032245595
-0.17509435 -0.05354286 0.0051416764 -0.14587131 -0.05979766 -0.07636017 -0.20216632 -0.07191031
-0.18938312 0.05733159 0.01622551 -0.13413839 -0.10985821 -0.1509582 -0.20502378 0.049011365
-0.101989344 -0.14145094 -0.07439626 -0.055713788 0.031226724 0.00967879 -0.03575979 0.01751933
0.14651784 0.08884106 -0.0025842278 -0.08204171 0.012989953 0.044725925 0.10868482 -0.2818729
0.030065104 -0.12734053 0.025045466 -0.2272431 -0.14556621 -0.019940712 -0.017165834 0.15523477
-0.009488415 -0.000100149606 0.028144732 0.08914683 -0.048118163 -0.13709438 -0.09914433 -0.080948345
0.12698951 -0.06482809 -0.09240484 -0.043338932 0.07132218 0.016137067 -0.16179006 -0.017184371
0.00960821 0.065809034 -0.13533337 -0.14150047 -0.064726256 -0.1463954 -0.18482164 -0.10553686
-0.06576873 0.10106272 -0.26809394 0.03444962 -0.020806514 -0.11505688 -0.09001354 -0.1545744
-0.049766492 -0.104269974 -0.16663529 -0.1860476 0.05338486 -0.09752755 -0.00592376 0.07213419
0.0044007986 -0.1351284 0.104356855 0.05781664 -0.06496285 0.037889365 -0.07637467 -0.13624775
-0.12306926 -0.23750961 -0.0728132 -0.10629941 0.082889155 0.07097394 0.02960227 -0.15323
0.085302524 -0.124336876 -0.17739074 0.038575877 -0.14946443 0.08194234 -0.108143225 0.05764076
-0.12720184 -0.0017679023 -0.09645005 -0.16562736 0.14972872 -0.13489185 -0.1455852 -0.034169845
0.0015892446 -0.17434481 -0.17064314 0.028687635 0.065227576 0.060502622 -0.09592066 0.020708052
-0.17511202 0.049747422 -0.07718229 -0.13646963 -0.13427973 -0.12075308 -0.058246166 0.09078948
-0.11926269 0.013248043 0.110766426 -0.16581842 -0.121306695 -0.16702881 0.0842519 -0.18300892
-0.008436082 -0.13008821 -0.15273723 -0.037025496 0.05583133 0.053848438 0.060026456 -0.1698743
0.07532054 0.0764513 -0.2021521 0.042280104 0.08722202 0.07226401 -0.095253296 0.009214641
-0.14768931 -0.1817109 0.08448264 -0.08338181 -0.11857122 0.057038743 -0.016161181 -0.08571782
0.09208078 0.0085802255 -0.090386316 0.09160724 -0.05441415 -0.112355195 0.040865228 0.19346261
-0.0815449 0.121781856 -0.18158647 -0.12529212 0.11337397 -0.18012299 -0.1055818 0.04781166
0.10698011 -0.052327637 0.047567364 0.033573467 -0.13070136 -0.08372332 0.004911273 -0.10225442
-0.09304172 0.029575065 -0.06770596 0.029306682 -0.056453206 0.14539036 -0.22519797 0.07405194
-0.021177072 -0.058419533 -0.08612644 -0.026376273 0.0499503 0.048418235 0.20223767 0.25394556
0.11123043 0.046481803 -0.07147121 -0.028506808 0.21007885 -0.05614867 0.068167485 0.12861487
-0.073609404 0.059828416 -0.02602071 0.0832689 -0.20158555 -0.18881366 0.023416694 0.118709646
00000000: 1658 f63c 553f c3bd 4a31 163d 3f58 03be
00000010: e7de c4bd 2a71 0a3d d784 5fbe b341 bebc
00000020: 95f7 ce3c e003 f43d 1c9e ccbd 813e fdbd
00000030: 6f22 33be b05a 35be b7c3 b03d e9d3 b5bd
00000040: 0bdc 21be c4fb 8a3d fb31 54be 3854 433d
00000050: b9d7 79bd 163d 24be 1388 35be 0390 843d
00000060: 1d6b 1dbe aece 6bbc cade 00be 0d87 28be
00000070: 2b72 0a3e ae9e 6fbc c7c0 12be aa0b 533d
00000080: 9630 05be 399c 543d a9a8 b63b ecd0 fdbd
00000090: 493a 893d 4c97 06be 694e f8bd f513 043d
000000a0: ef4b 33be c24f 5bbd 827b a83b 4a5f 15be
000000b0: 64ee 74bd b962 9cbd b004 4fbe b645 93bd
000000c0: a6ed 41be 88d4 6a3d 5ceb 843c 935b 09be
000000d0: 57fd e0bd c994 1abe c1f1 51be 24c0 483d
000000e0: cadf d0bd 84d8 10be 115d 98bd 2434 64bd
000000f0: 30cf ff3c ca93 1e3c dc78 12bd b384 8f3c
00000100: c608 163e 4df2 b53d 265c 29bb 7c05 a8bd
00000110: d0d3 543c 8832 373d 2696 de3d a551 90be
00000120: 184b f63c 8e65 02be 262c cd3c 6ab2 68be
00000130: 4f0f 15be b45a a3bc 5d9f 8cbc ddf5 1e3e
00000140: 4c75 1bbc 6907 d2b8 c88f e63c 9d92 b63d
00000150: 8d17 45bd 7862 0cbe 2f0c cbbd 3fc8 a5bd
00000160: 8a09 023e 97c4 84bd c03e bdbd 2a84 31bd
00000170: 5d11 923d e231 843c 4bac 25be 3dc6 8cbc
00000180: c16b 1d3c e3c6 863d d594 0abe 80e5 10be
00000190: 338f 84bd ade8 15be e241 3dbe b623 d8bd
000001a0: c2b1 86bd f9f9 ce3d 9c43 89be 0b1b 0d3d
000001b0: 6c72 aabc f1a2 ebbd 0559 b8bd c048 1ebe
000001c0: f3d7 4bbd 7f8b d5bd 71a2 2abe 4383 3ebe
000001d0: 15aa 5a3d 86bc c7bd 1a1c c2bb 17bb 933d
000001e0: 9334 903b 195f 0abe 0cb9 d53d 24d1 6c3d
000001f0: 3e0b 85bd e131 1b3d 536a 9cbd 8884 0bbe
00000200: bc0b fcbd b835 73be 161f 95bd 81b3 d9bd
00000210: cac1 a93d c95a 913d 7680 f23c 53e8 1cbe
00000220: 17b3 ae3d 55a4 febd eba5 35be bd01 1e3d
00000230: 340d 19be 63d1 a73d 327a ddbd b818 6c3d
00000240: 3341 02be f5b8 e7ba 9b87 c5bd 389a 29be
00000250: 7c52 193e 1721 0abe 4914 15be aef5 0bbd
00000260: 334e d03a 7287 32be 13bd 2ebe 5502 eb3c
00000270: 0996 853d 99d1 773d 0d72 c4bd efa3 a93c
00000280: 9150 33be f4c3 4b3d c011 9ebd b2be 0bbe
00000290: a080 09be 644d f7bd 8893 6ebd d6ef b93d
000002a0: ff3f f4bd 520e 593c 82d9 e23d 4ecc 29be
000002b0: a56f f8bd 9a09 2bbe 438c ac3d b166 3bbe
000002c0: 7e37 0abc d835 05be 2667 1cbe 0ca8 17bd
000002d0: 65af 643d 2e90 5c3d 4dde 753d 87f3 2dbe
000002e0: a841 9a3d 8092 9c3d f600 4fbe e72d 2d3d
000002f0: 75a1 b23d 27ff 933d 2914 c3bd 01f9 163c
00000300: de3b 17be 6c12 3abe 3c05 ad3d 15c4 aabd
00000310: 78d5 f2bd 75a1 693d 7464 84bc d38c afbd
00000320: d994 bc3d 1394 0c3c 761c b9bd 949c bb3d
00000330: 5fe1 5ebd 7b1a e6bd 4c62 273d 101b 463e
00000340: 0301 a7bd c468 f93d cef1 39be 944c 00be
00000350: 9d30 e83d 2972 38be 453b d8bd 29d6 433d
00000360: 6318 db3d 8155 56bd ffd5 423d 5584 093d
00000370: 94d6 05be 2277 abbd beee a03b c46a d1bd
00000380: a88c bebd 6847 f23c 6ca9 8abd 9114 f03c
00000390: 7a3b 67bd 36e1 143e 4c9a 66be 8ba8 973d
000003a0: 8a7b adbc 5249 6fbd 0f63 b0bd 0e13 d8bc
000003b0: b098 4c3d 3352 463d 6417 4f3e 2705 823e
000003c0: c8cc e33d b463 3e3d 7f5f 92bd 1c87 e9bc
000003d0: e91e 573e 26fc 65bd 659b 8b3d 9eb3 033e
000003e0: 87c0 96bd a40e 753d 6229 d5bc e388 aa3d
000003f0: 716c 4ebe 5e58 41be 5ed4 bf3c 0b1e f33d

sequential_1/conv2d_9/Conv2D f4 [128, 3, 1, 64]
-0.011349495 0.09574143 0.008453577 -0.03166807 -0.075822756 -0.029455159 0.05197929 -0.10766333
-0.004584888 -0.1294005 -0.037492868 0.0065073515 -0.019320764 0.103218205 0.057750344 -0.03800744
-0.11173101 0.13726008 0.05049576 0.01723488 -0.03872394 0.07999282 -0.07565806 0.030314537
-0.082172185 0.04532503 -0.11501802 -0.03018545 0.025968729 0.030275261 0.042429972 0.020100342
-0.14867479 0.10032809 -0.085350424 0.012084925 -0.039716713 0.005096267 -0.09077913 0.0074138422
-0.055605248 -0.043858826 0.17917329 0.008859256 -0.07322684 -0.07276419 0.024949873 0.0813378
0.0422342 0.029405726 0.06293433 0.022528216 -0.023060312 -0.03389555 0.06812942 -0.16385174
-0.025645472 0.0045089466 -0.030790268 0.05641727 -0.020108132 -0.03628782 -0.04378245 -0.06960552
0.07910182 -0.06230735 0.0673525 0.044594847 -0.038754106 -0.04560712 0.009392323 -0.05951232
0.043185882 -0.021998845 -0.0039330814 -0.02656554 -0.02476728 0.0013023287 -0.012756156 0.054717593
0.07791074 0.043023366 -0.06749474 -0.16001274 0.061159544 0.053795848 -0.108967945 -0.12510516
-0.05711014 -0.012906394 -0.07596164 0.052815076 0.09557404 0.0071328753 -0.02987024 -0.12967737
-0.04154418 0.16065833 -0.039692372 -0.042190846 0.044668104 0.008986593 -0.041767564 0.16730838
-0.028236134 -0.058199715 0.12788221 0.044687606 0.087554686 -0.0014454254 0.0066153603 0.08326711
0.017997265 0.039874125 -0.07075344 -0.08496451 -0.00833724 -0.06589237 0.10012712 -0.0099316295
-0.008403008 0.0061972984 -0.042507943 0.012995515 -0.15119971 0.028541982 0.034716357 -0.07972829
-0.1343103 -0.010582506 -0.009797971 -0.12794268 -0.0710714 -0.0066174064 -0.043686282 0.03723329
0.08419995 0.007417937 0.105109684 0.01214016 0.030209837 0.05048456 -6.47353e-05 0.04108731
-0.011079701 0.092319995 -0.0740309 -0.034183238 -0.08968467 0.034625467 0.060765054 -0.077842265
-0.08401091 0.0008653673 -0.029497823 -0.14939925 -0.04715379 0.018553648 -0.13543792 0.034849945
-0.0006056085 0.07500153 0.009944211 -0.05486182 -0.029485248 -0.0036214185 -0.03275063 0.08842246
0.068800285 0.041070554 0.10592613 0.062168557 -0.13907827 -0.011567566 -0.03555937 -0.030317329
-0.10482576 0.010703189 -0.0014495507 -0.026435925 -0.07810355 -0.1655512 0.017270792 0.075854525
-0.045252834 -0.013310655 0.07575919 -0.10142797 0.027847912 -0.09279064 0.09985239 -0.057240974
-0.12155751 0.016801042 -0.053857915 -0.041811038 0.052730512 -0.116745494 0.003511913 -0.0918721
-0.036807295 0.034116134 -0.054977775 0.08740978 -0.061511558 0.06001509 0.013017127 0.03469636
-0.11276492 0.0025497284 0.022984061 -0.004441325 -0.054865878 -0.056663238 0.045179877 0.08719795
0.03576302 -0.006176451 -0.056047156 0.006158796 0.06793755 0.052322667 0.017672002 -0.03231091
0.010204818 0.020773776 0.07411527 -0.05122659 -0.12877943 -0.07254544 0.022310406 -0.049456373
-0.06527498 0.03201191 0.063360065 0.07726872 0.033334274 -0.02164828 0.009090983 0.05336918
0.071596324 0.03629105 0.0032034724 0.01331784 0.044886053 0.015180074 0.029162494 -0.023135932
-0.0030362462 -0.007276655 0.039521374 0.086190745 0.036124624 0.04195154 0.10534855 -0.014821938
00000000: 3bf3 39bc 1514 c43d df80 0a3c 61b6 01bd
00000010: f648 9bbd f24b f1bc 3ce8 543d 987e dcbd
00000020: d43c 96bb 9181 04be 1f92 19bd 9f3b d53b
00000030: 9446 9ebc 1164 d33d a08b 6c3d b0ad 1bbd
00000040: 3ad3 e4bd e88d 0c3e a4d4 4e3d 2a30 8d3c
00000050: fe9c 1ebd 47d3 a33d 9df2 9abd 3156 f83c
00000060: e449 a8bd bda6 393d 918e ebbd 7a47 f7bc
00000070: 5fbc d43c d303 f83c 0dcb 2d3d 79a9 a43c
00000080: 343e 18be d078 cd3d 34cc aebd d9ff 453c
00000090: fead 22bd 96fe a63b 69ea b9bd d1ef f23b
000000a0: 54c2 63bd 50a5 33bd 3479 373e 6a26 113c
000000b0: f4f7 95bd 6405 95bd ad63 cc3c 6f94 a63d
000000c0: c5fd 2c3d 47e4 f03c b7e3 803d 188d b83c
000000d0: fbe8 bcbc 0fd6 0abd 7087 8b3d c0c8 27be
000000e0: 7416 d2bc c9bf 933b df3b fcbc cc15 673d
000000f0: cfb9 a4bc 8aa2 14bd 3a55 33bd 578d 8ebd
00000100: 2300 a23d fe35 7fbd 1cf0 893d 16a9 363d
00000110: a0bc 1ebd 88ce 3abd 42e2 193c 31c3 73bd
00000120: aee3 303d ec36 b4bc 14e1 80bb fa9f d9bc
00000130: c0e4 cabc e6b2 aa3a 32ff 50bc 8e1f 603d
00000140: ab8f 9f3d 4539 303d af3a 8abd 61da 23be
00000150: 6e82 7a3d 0959 5c3d 962a dfbd 911b 00be
00000160: 52ec 69bd 5775 53bc c791 9bbd 9f54 583d
00000170: 53bc c33d e5ba e93b 6fb2 f4bc 25ca 04be
00000180: 3b2a 2abd 9e83 243e 7894 22bd 4fd0 2cbd
00000190: e7f5 363d 813c 133c 7714 2bbd e352 2b3e
000001a0: 774f e7bc d362 6ebd 8ef3 023e 5a0a 373d
000001b0: df4f b33d 6e74 bdba aac5 d83b f287 aa3d
000001c0: 006f 933c 0d53 233d 2ee7 90bd df01 aebd
000001d0: eb98 08bc 94f2 86bd 730f cd3d 46b8 22bc
000001e0: c5ac 09bc b512 cb3b cf1c 2ebd 24eb 543c
000001f0: 19d4 1abe e0d0 e93c bd32 0e3d 9648 a3bd
00000200: a488 09be 3f62 2dbc ab87 20bc 6803 03be
00000210: e28d 91bd d4d6 d8bb 63f0 32bd ef81 183d
00000220: 0671 ac3d 2a12 f33b bf43 d73d 86e7 463c
00000230: 9f7a f73c e6c8 4e3d 80c2 87b8 2b4b 283d
00000240: a287 35bc 4412 bd3d 839d 97bd b903 0cbd
00000250: 99ac b7bd 6fd3 0d3d c7e4 783d c46b 9fbd
00000260: e90d acbd d1d9 623a 6ba5 f1bc 1efc 18be
00000270: 5524 41bd d2fd 973c 3db0 0abe d1be 0e3d
00000280: b3c1 1eba 679a 993d 0bed 223c cab6 60bd
00000290: 0c8b f1bc 5255 6dbb 8625 06bd d616 b53d
000002a0: 2ae7 8c3d 9939 283d cdef d83d 75a4 7e3d
000002b0: 896a 0ebe e385 3dbc b4a6 11bd 0c5c f8bc
000002c0: e3ae d6bd 6e5c 2f3c dafe bdba 2790 d8bc
000002d0: c1f4 9fbd 4186 29be 7a7b 8d3c 9e59 9b3d
000002e0: 095b 39bd ef14 5abc a227 9b3d 78b9 cfbd
000002f0: 4e21 e43c 0509 bebd 697f cc3d 8375 6abd
00000300: 25f3 f8bd 57a2 893c 1e9a 5cbd 0d42 2bbd
00000310: f3fb 573d 4318 efbd 1f28 663b 7127 bcbd
00000320: 3fc3 16bd 5cbd 0b3d 6030 61bd e603 b33d
00000330: 8bf3 7bbd 62d2 753d ca45 553c c51d 0e3d
00000340: 4bf1 e6bd 5819 273b 1249 bc3c 8988 91bb
00000350: 0bbb 60bd b617 68bd 890e 393d d794 b23d
00000360: 3f7c 123d d463 cabb b491 65bd bacf c93b
00000370: d822 8b3d 4b50 563d e0c4 903c 7258 04bd
00000380: 1c32 273c c42d aa3c bfc9 973d f9d2 51bd
00000390: c1de 03be b492 94bd 50c4 b63c c492 4abd
000003a0: e4ae 85bd ec1e 033d ecc2 813d 103f 9e3d
000003b0: 8589 083d bc57 b1bc 59f2 143c a499 5a3d
000003c0: 18a1 923d eda5 143d 59f1 513b 1233 5a3c
000003d0: 70da 373d d8b5 783c 2fe6 ee3c 9187 bdbc
000003e0: c2fb 46bb 0271 eebb 2ae1 213d c684 b03d
000003f0: 6af7 133d 61d5 2b3d fbc0 d73d b7d7 72bc
